…
relu',\n","                        input_shape=(224, 224, 3)))\n","model.add(layers.MaxPooling2D((2, 2)))\n","model.add(layers.Flatten())\n","model.add(layers.Dense(32, activation='relu'))\n","model.add(layers.Dense(43, activation='softmax'))\n","#display the model so far\n","model.summary()"],"execution_count":231,"outputs":[{"output_type":"stream","text":["_________________________________________________________________\n","Layer (type)                 Output Shape              Param #   \n","=================================================================\n","conv2d_125 (Conv2D)          (None, 222, 222, 32)      896       \n","_________________________________________________________________\n","max_pooling2d_36 (MaxPooling (None, 111, 111, 32)      0         \n","_________________________________________________________________\n","flatten_8 (Flatten)          (None, 394272)            0         \n","_________________________________________________________________\n","dense_50 (Dense)             (None, 32)                12616736  \n","_________________________________________________________________\n","dense_51 (Dense)             (None, 43)                1419      \n","=================================================================\n","Total params: 12,619,051\n","Trainable params: 12,619,051\n","Non-trainable params: 0\n","_________________________________________________________________\n"],"name":"stdout"}]},{"metadata":{"id":"sDR0JssNhSWC","colab_type":"code","colab":{}},"cell_type":"code","source":["from keras import optimizers\n","model.compil
…
d(layers.MaxPooling2D((2, 2)))\n","model.add(layers.Conv2D(256, (3, 3), activation='relu'))\n","model.add(layers.MaxPooling2D((2, 2)))\n","model.add(layers.Flatten())\n","model.add(layers.Dense(526, activation='relu'))\n","model.add(layers.Dense(43, activation='sigmoid'))\n","model.summary()"],"execution_count":276,"outputs":[{"output_type":"stream","text":["_________________________________________________________________\n","Layer (type)                 Output Shape              Param #   \n","=================================================================\n","conv2d_164 (Conv2D)          (None, 222, 222, 32)      896       \n","_________________________________________________________________\n","max_pooling2d_73 (MaxPooling (None, 111, 111, 32)      0         \n","_________________________________________________________________\n","conv2d_165 (Conv2D)          (None, 109, 109, 64)      18496     \n","_________________________________________________________________\n","max_pooling2d_74 (MaxPooling (None, 54, 54, 64)        0         \n","_________________________________________________________________\n","conv2d_166 (Conv2D)          (None, 52, 52, 128)       73856     \n","_________________________________________________________________\n","max_pooling2d_75 (MaxPooling (None, 26, 26, 128)       0         \n","_________________________________________________________________\n","conv2d_167 (Conv2D)          (None, 24, 24, 128)       147584    \n","_________________________________________________________________\n","max_pooling2d_76 (MaxPooling (None, 12, 12, 128)       0         \n","_________________________________________________________________\n","conv2d_168 (Conv2D)          (None, 10, 10, 256)       295168    \n","_________________________________________________________________\n","max_pooling2d_77 (MaxPooling (None, 5, 5, 256)         0         \n","_________________________________________________________________\n","conv2d_169 (Conv2D)          (None, 3, 3, 256)         590080    \n","_________________________________________________________________\n","max_pooling2d_78 (MaxPooling (None, 1, 1, 256)         0         \n","_________________________________________________________________\n","flatten_16 (Flatten)         (None, 256)               0         \n","_________________________________________________________________\n","dense_66 (Dense)             (None, 526)               135182    \n","_________________________________________________________________\n","dense_67 (Dense)             (None, 43)                22661     \n","=================================================================\n","Total params: 1,283,923\n","Trainable params: 1,283,923\n","Non-trainable params: 0\n","_________________________________________________________________\n"],"name":"stdout"}]},{"metadata":{"id":"A1AYjAFmJrjp","colab_type":"code","colab":{}},"cell_type":"code","source":["# from keras import optimizers\n","\n","model.co
…
","# model.compile(loss='binary_crossentropy',\n","#               optimizer=optimizers.RMSprop(lr=1e-4),\n","#               metrics=['acc'])\n","model.summary()\n","model.compile(optimizer='rmsprop',\n","              loss='categorical_crossentropy',\n","              metrics=['accuracy'])"],"execution_count":279,"outputs":[{"output_type":"stream","text":["_________________________________________________________________\n","Layer (type)                 Output Shape              Param #   \n","=================================================================\n","conv2d_170 (Conv2D)          (None, 222, 222, 32)      896       \n","_________________________________________________________________\n","max_pooling2d_79 (MaxPooling (None, 111, 111, 32)      0         \n","_________________________________________________________________\n","conv2d_171 (Conv2D)          (None, 109, 109, 64)      18496     \n","_________________________________________________________________\n","max_pooling2d_80 (MaxPooling (None, 54, 54, 64)        0         \n","_________________________________________________________________\n","conv2d_172 (Conv2D)          (None, 52, 52, 128)       73856     \n","_________________________________________________________________\n","max_pooling2d_81 (MaxPooling (None, 26, 26, 128)       0         \n","_________________________________________________________________\n","conv2d_173 (Conv2D)          (None, 24, 24, 128)       147584    \n","_________________________________________________________________\n","max_pooling2d_82 (MaxPooling (None, 12, 12, 128)       0         \n","_________________________________________________________________\n","conv2d_174 (Conv2D)          (None, 10, 10, 256)       295168    \n","_________________________________________________________________\n","max_pooling2d_83 (MaxPooling (None, 5, 5, 256)         0         \n","_________________________________________________________________\n","conv2d_175 (Conv2D)          (None, 3, 3, 256)         590080    \n","_________________________________________________________________\n","max_pooling2d_84 (MaxPooling (None, 1, 1, 256)         0         \n","_________________________________________________________________\n","flatten_17 (Flatten)         (None, 256)               0         \n","_________________________________________________________________\n","dropout_5 (Dropout)          (None, 256)               0         \n","_________________________________________________________________\n","dense_68 (Dense)             (None, 512)               131584    \n","_________________________________________________________________\n","dense_69 (Dense)             (None, 43)                22059     \n","=================================================================\n","Total params: 1,279,723\n","Trainable params: 1,279,723\n","Non-trainable params: 0\n","_________________________________________________________________\n"],"name":"stdout"}]},{"metadata":{"id":"c6RBZw58NyhM","colab_type":"code","colab":{}},"cell_type":"code","source":["model.save('GStore_4.h5')"],"execution_count":0,
…
